…
DB: ['HAM10000']
IMG_SIZE: [150, 150]
CLASSIFIER: NASNetLarge
JOB_INDEX: 1
Combining...
Combining 1 db out of 1 dbs
Stacking training images
Stacking training labels
Stacking validation images
Stacking validation labels
Combining...
Combining 1 db out of 1 dbs
Stacking training images
Stacking training labels
Stacking validation images
Stacking validation labels
Model: "sequential"
_________________________________________________________________
Layer (type)                 Output Shape              Param #   
=================================================================
NASNet (Functional)          (None, 4032)              84916818  
_________________________________________________________________
dense (Dense)                (None, 512)               2064896   
_________________________________________________________________
dropout (Dropout)            (None, 512)               0         
_________________________________________________________________
batch_normalization (BatchNo (None, 512)               2048      
_________________________________________________________________
dense_1 (Dense)              (None, 256)               131328    
_________________________________________________________________
dropout_1 (Dropout)          (None, 256)               0         
_________________________________________________________________
batch_normalization_1 (Batch (None, 256)               1024      
_________________________________________________________________
dense_2 (Dense)              (None, 2)                 514       
=================================================================
Total params: 87,116,628
Trainable params: 2,198,274
Non-trainable params: 84,918,354
_________________________________________________________________
Fitting HAM10000_noaug_NASNetLarge_150h_150w_1 model...
Epoch: 1 loss: 0.8038 accuracy: 0.5923 val_loss: 0.1468 val_accuracy: 0.9694
Epoch: 2 loss: 0.5922 accuracy: 0.7078 val_loss: 0.3601 val_accuracy: 0.8686
…
