…
JOB_INDEX: 1
Combining...
Combining 1 db out of 2 dbs
Combining 2 db out of 2 dbs
Stacking training images
Stacking training labels
Stacking validation images
Stacking validation labels
Combining...
Combining 1 db out of 2 dbs
Combining 2 db out of 2 dbs
Stacking training images
Stacking training labels
Stacking validation images
Stacking validation labels
Model: "sequential"
_________________________________________________________________
Layer (type)                 Output Shape              Param #   
=================================================================
NASNet (Functional)          (None, 1056)              4269716   
_________________________________________________________________
dense (Dense)                (None, 512)               541184    
_________________________________________________________________
dropout (Dropout)            (None, 512)               0         
_________________________________________________________________
batch_normalization (BatchNo (None, 512)               2048      
_________________________________________________________________
dense_1 (Dense)              (None, 256)               131328    
_________________________________________________________________
dropout_1 (Dropout)          (None, 256)               0         
_________________________________________________________________
batch_normalization_1 (Batch (None, 256)               1024      
_________________________________________________________________
dense_2 (Dense)              (None, 2)                 514       
=================================================================
Total params: 4,945,814
Trainable params: 674,562
Non-trainable params: 4,271,252
_________________________________________________________________
Fitting ISIC2016+_7_point_criteria_noaug_NASNetMobile_150h_150w_1 model...
Epoch: 1 loss: 0.9757 accuracy: 0.5068 val_loss: 0.7529 val_accuracy: 0.3342
Epoch: 2 loss: 0.8545 accuracy: 0.5586 val_loss: 0.7274 val_accuracy: 0.4230
…
