…
Stacking training images
Stacking training labels
Stacking validation images
Stacking validation labels
Combining...
Combining 1 db out of 5 dbs
Combining 2 db out of 5 dbs
Combining 3 db out of 5 dbs
Combining 4 db out of 5 dbs
Combining 5 db out of 5 dbs
Stacking training images
Stacking training labels
Stacking validation images
Stacking validation labels
Model: "sequential"
_________________________________________________________________
Layer (type)                 Output Shape              Param #   
=================================================================
NASNet (Functional)          (None, 4032)              84916818  
_________________________________________________________________
dense (Dense)                (None, 512)               2064896   
_________________________________________________________________
dropout (Dropout)            (None, 512)               0         
_________________________________________________________________
batch_normalization (BatchNo (None, 512)               2048      
_________________________________________________________________
dense_1 (Dense)              (None, 256)               131328    
_________________________________________________________________
dropout_1 (Dropout)          (None, 256)               0         
_________________________________________________________________
batch_normalization_1 (Batch (None, 256)               1024      
_________________________________________________________________
dense_2 (Dense)              (None, 2)                 514       
=================================================================
Total params: 87,116,628
Trainable params: 2,198,274
Non-trainable params: 84,918,354
_________________________________________________________________
Fitting ISIC2016+ISIC2017+ISIC2018+PH2+_7_point_criteria_noaug_NASNetLarge_150h_150w_1 model...
Epoch: 1 loss: 0.7361 accuracy: 0.6217 val_loss: 0.4923 val_accuracy: 0.7989
Epoch: 2 loss: 0.5081 accuracy: 0.7650 val_loss: 0.5082 val_accuracy: 0.7961
…
